examples/algo/homework/critic_1000.pth (torch, 3231 bytes, 4 tensors)

linear_in.weight f4 [64, 4]
0	0x3f36ca91	0.7140284
1	0x3ffa7856	1.9567974
2	0x404445d1	3.0667613
3	0x3ffd6563	1.9796566
4	0x3f036e03	0.5133974
5	0x4003c1a9	2.058695
6	0x400ad0cf	2.1689947
7	0x3e924daf	0.28574893
8	0x4005cde7	2.0906923
9	0x406ef573	3.733731
10	0xc0673510	-3.6126137
11	0xbf63b20a	-0.8894354
12	0x40094b2f	2.1452138
13	0x4049a558	3.1507168
14	0x40f31f6e	7.5975866
15	0x40335dc7	2.8025987
16	0x3fc00c68	1.5003786
17	0x4003ddb8	2.0604076
18	0x3fd9c51a	1.7013276
19	0x3fb158ce	1.3855226
20	0x406131ed	3.5186722
21	0xbfb8ab85	-1.4427344
22	0x3f9dd56e	1.2330759
23	0xbffbee6c	-1.9682136
24	0x3f866b42	1.0501482
25	0xbfafecdb	-1.3744158
26	0x40e58797	7.1728015
27	0xbe1e9a73	-0.15488605
28	0x3dc2589c	0.09489557
29	0x3fe13af5	1.7596117
30	0x3fd2d2a6	1.6470535
31	0x3f869219	1.0513335
32	0x40f7613a	7.7306185
33	0x40945dda	4.6364565
34	0x40bcce0f	5.9001536
35	0x4027365b	2.6126926
36	0xbe9996a1	-0.29997733
37	0xbfd66880	-1.6750641
38	0xbea36c31	-0.3191848
39	0xbf60c425	-0.8779929
40	0x400dc674	2.2152376
41	0x3fd27f0f	1.6445025
42	0x3f77a130	0.9673033
43	0x3f4b2698	0.79355764
44	0xc0368dfd	-2.8524163
45	0xbffc5b6a	-1.9715397
46	0xc120d7d8	-10.052696
47	0xbfb95548	-1.4479151
48	0x3ec1dc03	0.37863168
49	0x3fc7fb0f	1.5623492
50	0xbebba394	-0.36648238
51	0x3f376989	0.7164541
52	0xbff528eb	-1.9153112
53	0x40037376	2.0539222
54	0x410575ac	8.3412285
55	0x40175e0d	2.3651154
56	0x3fd83033	1.6889709
57	0x3fcc6eae	1.5971277
58	0xbe1cafc2	-0.15301421
59	0x3f7fbbfc	0.99896216
60	0x3f59bdcf	0.8505525
61	0x401cb49d	2.4485238
62	0x405dee85	3.467683
63	0x402b299c	2.6744146
64	0xbe09a6bf	-0.13442515
65	0x3f03e2bf	0.5151786
66	0x401665ed	2.349971
67	0x3f3d9b35	0.7406495
68	0xc054054d	-3.3128235
69	0xc0482b23	-3.1276329
70	0xc124fdfb	-10.312007
71	0xc0454d1c	-3.0828314
72	0x3dec79f5	0.11546699
73	0xbd10b0b2	-0.03532476
74	0x3ca8667f	0.020556686
75	0x3bdb305a	0.0066891136
76	0xbd7c15da	-0.061544277
77	0x3e129fae	0.14318725
78	0xbf8cb052	-1.0991309
79	0x3dc10dae	0.09426437
80	0x40e1e5df	7.0593104
81	0x40ab23b7	5.3481097
82	0x40c255de	6.072982
83	0x4057dd43	3.3728797
84	0xc01d55a5	-2.4583523
85	0xc0022e3c	-2.034072
86	0x410a9c29	8.663125
87	0xbf121459	-0.570623
88	0x3de8a17e	0.11358927
89	0xbf534933	-0.8253357
90	0xc182a258	-16.32927
91	0xc042cca1	-3.0437396
92	0x3d74a158	0.059724182
93	0xbc15b855	-0.009138186
94	0xc0ea9165	-7.3302484
95	0xbea306f6	-0.31841248
96	0xc091fc78	-4.562069
97	0xc04f2c55	-3.2370808
98	0xc0e4792b	-7.139791
99	0xbfce7b37	-1.6131352
100	0x3e8deb0e	0.27718395
101	0x3f8800fd	1.0625302
102	0x418fe4bd	17.986689
103	0x4003d9ff	2.0601804
104	0xc09fe7cf	-4.997047
105	0xc0a215ed	-5.0651765
106	0xc0328782	-2.7895207
107	0xc02e0d6e	-2.7195697
108	0x3f5dba08	0.86611986
109	0x3fb144cb	1.3849119
110	0x40058dca	2.086779
111	0x3f364350	0.7119646
112	0x40198304	2.3986216
113	0x3fee8789	1.8635112
114	0x411c0d8f	9.75331
115	0x4021d0d5	2.528371
116	0xc103a141	-8.226869
117	0xc0035ad8	-2.0524197
118	0xc0ffeb82	-7.9974985
119	0xbfc9e042	-1.5771563
120	0x3d16552b	0.036702316
121	0xbe7c8064	-0.24658352
122	0xc1461d54	-12.38216
123	0x3ea861b2	0.32887036
124	0x400b2f8c	2.174777
125	0x3fd47eff	1.6601256
126	0x3de4bb03	0.11168482
127	0x3f4a4470	0.7901068
128	0xc02c322a	-2.6905618
129	0x40929ac8	4.581394
130	0x40b71642	5.721467
131	0x40873987	4.2257724
132	0xbf546acf	-0.82975477
133	0x3fa447d2	1.2834418
134	0xc0298bad	-2.6491501
135	0xbf2826bd	-0.6568411
136	0x3f5a3ad6	0.85246027
137	0x3fedf211	1.8589498
138	0xbf92840e	-1.144655
139	0x3f8356dc	1.0260882
140	0xbe799949	-0.2437488
141	0x3d6fcb49	0.058543477
142	0x3e1d857e	0.15382954
143	0x3e06b5eb	0.13155334
144	0x3f5a4440	0.8526039
145	0x400448df	2.0669477
146	0x3f27733c	0.6541021
147	0x3f07799a	0.52919924
148	0x3ff7573d	1.9323498
149	0x40051f95	2.0800526
150	0x4046f186	3.1084914
151	0x4004f544	2.0774698
152	0xc0801c20	-4.003433
153	0xbf8dc28f	-1.1075
154	0xbf76ee26	-0.96457136
155	0xbed16bee	-0.40902656
156	0x3fe2ba17	1.771304
157	0x408afb76	4.343196
158	0x41882793	17.019323
159	0x405e8e21	3.4774249
160	0xc0da2c12	-6.8178797
161	0xbe937256	-0.2879817
162	0xc10cc562	-8.798189
163	0xbf6ade3b	-0.91745347
164	0xbe5d4c8f	-0.21611236
165	0xbc9d8e09	-0.019232767
166	0x3eb1de03	0.34739694
167	0xbc1b6c10	-0.009486213
168	0xc09726ae	-4.7234716
169	0x4092638f	4.574653
170	0xbf8c640c	-1.0968032
171	0x404ade94	3.169835
172	0xc03e3c1c	-2.9724188
173	0xc035bac3	-2.839524
174	0xc163409c	-14.203274
175	0xc0165c29	-2.349375
176	0xc0add2b8	-5.4319725
177	0xbff6bdc7	-1.9276665
178	0xbe0e9d5b	-0.13927214
179	0xbfa49bf9	-1.2860099
180	0x3d977c60	0.073967695
181	0xbde1dc71	-0.11028374
182	0xbe5f831f	-0.21827362
183	0x3d68476f	0.05670875
184	0xc013ed28	-2.3113499
185	0xc09bad13	-4.864877
186	0xc11f0980	-9.939819
187	0xc0422515	-3.0335133
188	0x3e4f42a4	0.20240265
189	0x3c0d6207	0.008629329
190	0x3f3735fc	0.7156675
191	0xbe009d5e	-0.12560031
192	0xc0337f0b	-2.804629
193	0xc060c8b0	-3.512249
194	0xc0eaf87f	-7.342834
195	0xc03b185d	-2.923362
196	0xbddbabc5	-0.10726122
197	0xbde6f493	-0.112771176
198	0x3d2ee1bb	0.042695742
199	0xbe2984c1	-0.16554548
200	0xbee1e207	-0.44117758
201	0x3eb133cb	0.34609827
202	0xbf4567b8	-0.7711139
203	0xbf53514a	-0.8254591
204	0x3f1e8cfa	0.61933863
205	0x4000744b	2.007098
206	0x3f0babba	0.5455891
207	0x3f16f5a9	0.589686
208	0x3fcf83f3	1.6212143
209	0x3fdfc10b	1.7480787
210	0x3f86c6fa	1.0529473
211	0x3f78e9ad	0.9723156
212	0x3f064393	0.5244686
213	0x403e2dde	2.9715495
214	0x408a0e63	4.314256
215	0x3fd8aa21	1.6926919
216	0xc049707c	-3.1474905
217	0xc084d28a	-4.1507006
218	0xc0ff5c7c	-7.9800396
219	0xc0492a51	-3.1432078
220	0xc0897fe2	-4.2968607
221	0xc08a67d0	-4.3251724
222	0xc09133db	-4.53758
223	0xc022233a	-2.5334
224	0xbfe190c8	-1.7622309
225	0xc090ed16	-4.528941
226	0xc13c4d50	-11.768875
227	0xc05fa6bb	-3.4945514
228	0xbfe0cc18	-1.7562284
229	0xbffde253	-1.9834694
230	0xc145ce33	-12.362842
231	0xbf7387a5	-0.9512885
232	0x3ec3ebca	0.3826583
233	0x3e291e4b	0.16515462
234	0x3ddd8a07	0.10817342
235	0x3eba4e71	0.3638797
236	0x3e22fb79	0.15916242
237	0xbe87a355	-0.264918
238	0xc17cf9c9	-15.810983
239	0xbe979b78	-0.296108
240	0x41070f2a	8.441202
241	0x3ec9e9de	0.3943624
242	0xc028a7d7	-2.6352441
243	0x3e46067c	0.19338411
244	0xc035af46	-2.8388228
245	0xc01adacf	-2.419605
246	0xc0d6f60d	-6.7175355
247	0xbdda0b8b	-0.10646733
248	0xc0a3af2e	-5.1151342
249	0xbfe28a9b	-1.7698549
250	0xc0f71024	-7.7207203
251	0xbf8118b6	-1.0085666
252	0x3ff36545	1.901528
253	0x40027f7c	2.039031
254	0xbe868d6d	-0.26279774
255	0x3f98bd2a	1.1932728

linear_in.bias f4 [64]
0	0x3fcd6cad	1.604879
1	0x4011a104	2.2754526
2	0x3ec24da5	0.37949863
3	0x3ed9ebe1	0.42562774
4	0x40253fa3	2.582009
5	0xbef2b42e	-0.4740309
6	0x3fb81307	1.4380807
7	0x403bc386	2.9338088
8	0x3fb6d62d	1.4284111
9	0x3f8c7986	1.0974586
10	0x402a02bf	2.6564176
11	0x3f5d92a9	0.8655191
12	0x402df4e8	2.718073
13	0xbffa43a7	-1.9551896
14	0x400b1804	2.1733408
15	0x40076a20	2.1158524
16	0xc002e0f6	-2.0449805
17	0x3f70d0a8	0.94068384
18	0xbea64151	-0.32471707
19	0xbf6e9b66	-0.9320587
20	0x3f683d27	0.9071831
21	0xbf9e16e3	-1.2350734
22	0x3fded88a	1.7409832
23	0x401c4c8e	2.4421725
24	0x3f95bf2f	1.169897
25	0xc01aef7f	-2.4208677
26	0x3eb4aea7	0.352895
27	0x401eee78	2.483305
28	0xbfd86dfe	-1.6908567
29	0xbe4f17e7	-0.20223962
30	0xc070061e	-3.7503734
31	0x4026499e	2.5982432
32	0x3fc43ac5	1.5330435
33	0x4065a3fb	3.5881336
34	0x400e8383	2.2267768
35	0xbf57525f	-0.84110063
36	0x4022a477	2.5412881
37	0x402de77d	2.717254
38	0x3f138183	0.57619494
39	0xbf5b8b44	-0.8575938
40	0x3f124679	0.5713878
41	0xbf27ce70	-0.65549374
42	0x3e27ec1b	0.16398661
43	0xbfe2936f	-1.7701243
44	0x3f8fc854	1.123301
45	0xbf3b7f9f	-0.7324161
46	0xbe7477fd	-0.23873897
47	0xbf613806	-0.8797611
48	0xbe3b8aee	-0.18314716
49	0xbf6303fc	-0.88677955
50	0xc064fdf8	-3.578001
51	0x401379b1	2.3043025
52	0x4007af85	2.1200879
53	0x402084b6	2.5081
54	0x4039a68d	2.9007905
55	0xbe1c1169	-0.15241016
56	0xbfbb9aa7	-1.4656571
57	0x40151979	2.3296797
58	0x4017bbd6	2.3708396
59	0xc069f134	-3.6553469
60	0xbe9f5145	-0.3111669
61	0xbe15c88b	-0.14627282
62	0xbf692e01	-0.9108582
63	0x401bcb7f	2.4342954

linear_out.weight f4 [2, 64]
0	0x3feed9da	1.8660233
1	0x3ffd5733	1.9792236
2	0xc01f61a6	-2.490335
3	0xc18f9432	-17.947361
4	0x401d00a0	2.4531631
5	0xc011fa63	-2.2809074
6	0xc0e4e4a1	-7.152909
7	0x401ff09e	2.499061
8	0x408094c6	4.018161
9	0x40313123	2.768624
10	0x4039e414	2.9045458
11	0x4062c0d6	3.5430198
12	0x3ff725ea	1.9308445
13	0xc19e72b9	-19.806017
14	0x402cc7a5	2.6996853
15	0x402b3ede	2.675712
16	0xbf8fb109	-1.1225902
17	0x40736981	3.8033144
18	0x3d9a4bba	0.07533975
19	0xbe18f7cb	-0.14938276
20	0x408cb516	4.397105
21	0xc172c7a8	-15.173744
22	0xc0c83d75	-6.257502
23	0x404495ef	3.0716512
24	0x405ff080	3.499054
25	0x4062525c	3.5362768
26	0x401facef	2.49493
27	0x3fde79e7	1.7380952
28	0xc19703e9	-18.87691
29	0xc135abfc	-11.354488
30	0xc14c273f	-12.759582
31	0x40301877	2.7514932
32	0xc1325688	-11.146126
33	0x401ed00d	2.4814484
34	0x403e3ce7	2.9724672
35	0x3e36c8ca	0.17850032
36	0x4032a798	2.791479
37	0x4037caad	2.8717453
38	0x409cd72b	4.9012656
39	0x4108e843	8.5567045
40	0xc09d0110	-4.9063797
41	0xbee310aa	-0.4434865
42	0xc104a20c	-8.289562
43	0xc14a5677	-12.64611
44	0x40c9b5be	6.3034353
45	0x3e190957	0.14944969
46	0xc0cdfe76	-6.437312
47	0x3e0efaeb	0.13962905
48	0x40a2219e	5.0666037
49	0xbebea7ee	-0.37237495
50	0xc019e209	-2.404421
51	0x40241850	2.563984
52	0x3eed9220	0.46400547
53	0x40404b33	3.0045898
54	0x4050e61b	3.2640445
55	0x40680e04	3.6258554
56	0xc0dc1774	-6.877863
57	0x408cc66d	4.399222
58	0x3f7bf57e	0.98421466
59	0xc1ae31a3	-21.774237
60	0xc1399c33	-11.600635
61	0x40937a1c	4.608656
62	0x40b0ac66	5.5210447
63	0xbdcc5aa6	-0.09978227
64	0x3fd466cf	1.6593875
65	0x3fd28c28	1.6449022
66	0xc03331af	-2.7999074
67	0xc15efb94	-13.93642
68	0x3ff0f694	1.882525
69	0xbfd324f0	-1.6495647
70	0xc0d287a9	-6.57906
71	0x3fd4b320	1.6617165
72	0x40e45193	7.134958
73	0x3df18070	0.11792076
74	0x400e59ea	2.224238
75	0x40a14406	5.0395536
76	0x3fbf382e	1.493902
77	0xc1778059	-15.468835
78	0x3fcaafbc	1.583488
79	0x3ffb8f8e	1.9653184
80	0xc03c2821	-2.9399493
81	0x4071b976	3.7769446
82	0x3c7942a6	0.015213644
83	0xbee038d5	-0.4379336
84	0x409095a5	4.518267
85	0xc16b7533	-14.716113
86	0xc08d1853	-4.4092193
87	0x4012e41c	2.2951727
88	0x409a3bb9	4.8197904
89	0x407a3497	3.9094598
90	0x4085107e	4.158263
91	0x3feaa70a	1.8332226
92	0xc18e3aa9	-17.778643
93	0xc1337573	-11.216174
94	0xc19cf168	-19.617874
95	0x40091c17	2.1423395
96	0xc0dcfb15	-6.9056497
97	0x402c2b2b	2.6901348
98	0x3f37a5ad	0.71737176
99	0x3ed5039e	0.41604322
100	0x3fbebf7c	1.4902186
101	0x402efe31	2.7342646
102	0x40a8aa9f	5.270828
103	0x4096a71d	4.7078996
104	0xc1198ef2	-9.597399
105	0x3e33ca1d	0.17557569
106	0xc10ad4f6	-8.676992
107	0xc133101d	-11.191434
108	0x40f4f561	7.6549535
109	0x3d98c6f0	0.07459819
110	0xc11356f4	-9.208729
111	0x3e45f101	0.19330217
112	0x4051dd73	3.2791412
113	0x3d4eced3	0.05049021
114	0xc063ab5e	-3.5573344
115	0x3f9ffdd6	1.249934
116	0x4038b977	2.8863199
117	0x3ff6364a	1.9235318
118	0x4085193c	4.1593304
119	0x4076833c	3.85176
120	0xc119e6ab	-9.618815
121	0x40876e13	4.232187
122	0x3fd0772d	1.628637
123	0xc22c8322	-43.12806
124	0xc15c1672	-13.75548
125	0x40724fe2	3.7861257
126	0x40a0913a	5.017728
127	0x404551a9	3.0831091

linear_out.bias f4 [2]
0	0x403e0aae	2.9694018
1	0x4082857f	4.078796
